…
[2025-12-11 23:58:35,873] [INFO] - Excluding low quality images
[2025-12-11 23:58:36,045] [INFO] - Finished quality control. Total images excluded: 0
[2025-12-11 23:58:36,103] [INFO] - Finished data cleaning
[2025-12-11 23:58:36,103] [INFO] - Remaining images shape: (304, 224, 224, 3)
[2025-12-11 23:58:36,103] [INFO] - Remaining labels shape: (304,)
[2025-12-11 23:58:36,270] [INFO] - Prepared data saved to: data\cleaned_numpy_data
[2025-12-11 23:58:45,826] [INFO] - Creating splits...
[2025-12-11 23:58:46,028] [INFO] - Created splits
[2025-12-11 23:58:46,028] [INFO] - Train images and labels shape: (243, 224, 224, 3) - (243,)
[2025-12-11 23:58:46,028] [INFO] - Val images and labels shape: (30, 224, 224, 3) - (30,)
[2025-12-11 23:58:46,028] [INFO] - Test images and labels shape: (31, 224, 224, 3) - (31,)
[2025-12-11 23:58:46,262] [INFO] - Saved split result plots
[2025-12-11 23:58:50,934] [INFO] - Initializing model: anklealign_vit
[2025-12-11 23:58:51,986] [INFO] - Weights found at: assets\pretrained_weights\imagenet21k_ViT-B_16.npz
[2025-12-11 23:58:53,950] [INFO] - Model Architecture Summary:

===============================================================================================
Layer (type:depth-idx)                        Output Shape              Param #
===============================================================================================
VisionTransformer                             [16, 3]                   --
├─Transformer: 1-1                            [16, 197, 768]            --
│    └─Embeddings: 2-1                        [16, 197, 768]            152,064
│    │    └─Conv2d: 3-1                       [16, 768, 14, 14]         590,592
│    │    └─Dropout: 3-2                      [16, 197, 768]            --
│    └─Encoder: 2-2                           [16, 197, 768]            --
│    │    └─ModuleList: 3-3                   --                        85,054,464
│    │    └─LayerNorm: 3-4                    [16, 197, 768]            1,536
├─Linear: 1-2                                 [16, 3]                   2,307
===============================================================================================
Total params: 85,800,963
Trainable params: 85,800,963
Non-trainable params: 0
Total mult-adds (Units.GIGABYTES): 3.21
===============================================================================================
Input size (MB): 9.63
Forward/backward pass size (MB): 2594.93
Params size (MB): 342.60
Estimated Total Size (MB): 2947.16
…
